SUMO test cfg + DQN/dqn_astc_4phase.pth (torch, 73845 bytes, 6 tensors)

net.0.weight f4 [128, 5]
000000 48 d2 85 bf 5b 8e a9 3f 71 fd a4 3e 8e 4e 6e 3e
       -1.0454798 1.3246568 0.3222461 0.23272154
000010 9a 5f c9 3e de a6 a8 be 95 6b b1 3f 5d c7 22 3e
       0.3933075 -0.3293981 1.3860956 0.15896364
000020 c7 f0 37 3d a3 73 88 3d 60 60 f1 3d 80 dc d1 bd
       0.044907358 0.06662681 0.1178596 -0.10247135
000030 7e 71 19 be f0 58 9a be 2e e9 3f be 3d fa 80 bf
       -0.149847 -0.3014598 -0.18741295 -1.0076367
000040 b4 53 e4 3f f3 aa a9 3e 85 0d a5 3e 03 a5 07 3f
       1.7838044 0.33138236 0.32236877 0.5298616
000050 2b 2d 25 c0 45 78 35 40 88 97 24 3f 5b f2 25 be
       -2.5808818 2.8354657 0.6429372 -0.16205733
000060 9e 31 93 be 25 e4 80 be 80 d4 21 be b8 23 51 3e
       -0.28748792 -0.2517406 -0.15803719 0.20423782
000070 f8 83 55 3e 50 27 df bd 87 d9 6d be 08 d1 e1 3e
       0.20851123 -0.1089617 -0.23227511 0.4410479
000080 b7 7d 8d be b6 6d 89 be a4 eb bc be 35 e7 6b c0
       -0.27634975 -0.26841515 -0.3689853 -3.6859868
000090 99 3c e9 bb b2 fe c8 3d b4 ec cb bd bf f6 ea 3e
       -0.0071178195 0.09814204 -0.09957257 0.45891377
0000a0 3b b7 28 bf b5 14 b3 3f 06 23 0b 3f af 62 4c bc
       -0.6590459 1.3990694 0.54350317 -0.0124747
0000b0 72 f7 ab 3d 51 f1 4a bf b1 73 8c 3f 02 0d c8 3e
       0.08396806 -0.7927447 1.0972806 0.39072424
0000c0 e1 2c 64 be 71 e4 f2 3e d8 75 7f 3e 5c 21 24 c0
       -0.22282745 0.47439912 0.24947298 -2.564536
0000d0 38 87 7d 3e bf 1e 59 bf 92 ea 9c 3e 71 8f 37 bf
       0.24758613 -0.8481254 0.30647713 -0.7170325
0000e0 35 02 eb 3f 89 f9 26 bd aa 17 4e 3d 1f ab 11 3f
       1.8360049 -0.04076532 0.050315537 0.56901735
0000f0 60 28 6e be 31 96 cd 3f 8f c0 e8 3e 31 9a fc 3d
       -0.2325759 1.606146 0.4545941 0.12334097
000100 89 ef fe 3e f4 67 f3 be 18 ca ee 3f 5c cf 20 3f
       0.49792126 -0.47540247 1.8655424 0.62816405
000110 91 a1 d3 be 2f 8a c1 3e e3 97 7a c0 49 73 1e 40
       -0.41334203 0.37800738 -3.9155204 2.4757864
000120 68 a4 dd 3e 86 40 cb be 77 0b 10 3f 10 42 92 3c
       0.43289495 -0.39697665 0.56267494 0.017853767
000130 94 00 59 be 00 36 00 bd 34 a4 db 3e 67 de e4 be
       -0.21191627 -0.0313015 0.42898715 -0.4470093
000140 6c ec de be 5c a8 9e be 40 26 65 3e 20 92 01 be
       -0.4353975 -0.30987823 0.22377872 -0.12653399
000150 e8 95 50 3d 6c 4d bb be 82 19 3a be 30 98 84 3d
       0.05092421 -0.36582506 -0.18173793 0.0647434
000160 00 a6 f2 3b 96 0b df 3e 92 f3 ac be 62 db 8f 3f
       0.0074050426 0.43563527 -0.3377958 1.1238825
000170 61 ef e0 3e 42 35 c0 3e 05 3c 1c 3e b9 ee 94 bf
       0.43932632 0.37540632 0.1525727 -1.1635352
000180 82 c5 d7 3f 2a 09 30 3f 3d 51 27 be e3 b7 ad 3e
       1.685715 0.68763983 -0.16339584 0.33929357
000190 18 1f 44 3d 9e 6c 0a be 68 47 ab be 58 57 55 3d
       0.047881216 -0.13517997 -0.33452916 0.05208525
0001a0 92 9b 9a be 3f 50 f3 be 25 b1 ca 3f 82 c3 c9 3e
       -0.30196816 -0.4752216 1.583531 0.39406973
0001b0 af 99 08 3e 8b a7 db 3e 06 d1 94 be 8c f1 ef bd
       0.13339876 0.42901263 -0.29065722 -0.11715993
0001c0 f8 8e c7 bd c1 b8 4e be 90 9f 2a 3e da 7f 8b bf
       -0.09744066 -0.20187666 0.16662431 -1.0898392
0001d0 9d 19 96 3f 8d a8 a4 3e 7e 8b 6d 3d 91 88 89 3e
       1.1726567 0.32159844 0.05799436 0.26862004
0001e0 ad 52 e4 bf cb 5c 98 3f 28 44 19 3f 78 ba 27 3e
       -1.7837731 1.1903318 0.59869623 0.16379726
0001f0 0d 6a 17 3f 52 26 72 3c 3d 9d ea 3f 9a 76 8b 3e
       0.59146196 0.014779644 1.8329235 0.27238923
000200 b4 e3 6b 3e 9d 02 c3 be 38 32 23 3e d1 a8 ac be
       0.2303608 -0.3808793 0.15937126 -0.33722547
000210 16 d4 00 be 58 fc ba 3d 18 7a be bd 58 e9 ab 3f
       -0.12580904 0.09130162 -0.09300631 1.3430586
000220 af 66 6a c0 52 c3 bf be 5e b2 23 3f e7 30 95 3e
       -3.6625173 -0.37453705 0.6394404 0.29138872
000230 42 2c 81 bf 96 1d 76 40 77 5b ff 3e 45 30 da be
       -1.0091631 3.8455558 0.4987447 -0.42614952
000240 4c dc d9 be 38 1c 2f bf 80 e0 54 3f 0d e2 44 be
       -0.42550886 -0.68402433 0.8315506 -0.19226857
000250 56 c7 a2 3e 5d 81 45 3e 98 d0 53 40 a4 ce 9c c0
       0.31792706 0.1928763 3.3096066 -4.9002247
000260 37 18 10 3f 39 15 61 3c c7 37 b6 be 5f dd 2b bf
       0.5628695 0.01373797 -0.3558943 -0.6713466
000270 ca c9 06 40 91 86 2f 3f e5 83 27 bf e2 88 5c be
       2.1060662 0.6856471 -0.6543563 -0.21536592
000280 ab 4a 03 bf 55 5d b9 3f 55 79 04 3e 46 ca d7 bd
       -0.5128581 1.4481608 0.1293691 -0.105366275
000290 b9 eb be 3e 3b 11 93 bf bd 0c 8f 3f 1d a5 ad 3e
       0.37289217 -1.1489633 1.1175762 0.33915034
0002a0 c3 af 75 3e 96 ca 21 3f af 6e 2d bf 4d 3b eb 3f
       0.23992829 0.63199747 -0.67747015 1.8377472
0002b0 09 32 77 be 6e b2 57 3d eb 2c 7e bc 34 fb 5b 3e
       -0.2414018 0.0526604 -0.015513639 0.21482545
0002c0 aa 8d d7 be 7a dd 72 be 08 16 33 3e e5 5a b2 be
       -0.4210027 -0.23717299 0.17488873 -0.34834972
0002d0 31 03 15 be 57 86 7d 3f b8 67 7e be aa d1 e9 3d
       -0.14551999 0.9903311 -0.24844253 0.11416943
0002e0 b6 40 f3 3e ba ac a3 3f 56 0a c1 bf 75 80 b5 bd
       0.47510308 1.2787087 -1.5081279 -0.08862392
0002f0 1c 7d 3d 3c 0f 77 c4 3e 5c 97 ed bf ae 2c 6c 40
       0.011565473 0.38372084 -1.8561816 3.690227
000300 02 72 a2 bd b9 5c e2 be 03 8f a6 3e 88 20 9e bf
       -0.079319015 -0.44211367 0.32530984 -1.2353678
000310 e9 96 5a 3f 2a 7d 4f 3f ee 10 f7 bd 29 7e 0f 3f
       0.8538652 0.8105036 -0.12063776 0.5605188
000320 16 a7 2b bf 88 f3 f8 3f 7d 71 73 3e 2e 87 89 bc
       -0.6705183 1.944932 0.23773761 -0.016788092
000330 4f 05 f9 3e 6b bc 6a bf 31 1b 46 3f cf ed b2 3e
       0.48636863 -0.91693753 0.7738524 0.3494706
000340 74 41 90 be a8 50 48 3e 75 43 1f bf d6 ca d6 3f
       -0.28174937 0.19562018 -0.62212306 1.6780651
000350 25 3c 4c 3e 86 5d 88 3e d3 52 b3 3e 43 5f 4a bf
       0.19944818 0.26633853 0.35024127 -0.7905161
000360 0f 80 c3 3f 93 8f 0b 3f 12 c8 06 3e b1 ef eb 3b
       1.5273455 0.5451595 0.13162258 0.0072002043
000370 28 38 97 be cc 17 90 bd 5c ce 1f be 3c e3 1b be
       -0.2953503 -0.07035789 -0.15606064 -0.15223402
000380 47 af d8 be ca 9e 74 bf 2e 9b cb 3f ba 22 b7 3e
       -0.42321226 -0.9555479 1.5906732 0.35768682
000390 69 6c b4 3e d8 dd 9a 3e 39 63 90 be 8c 34 b8 be
       0.3523896 0.30247378 -0.282007 -0.3597759
0003a0 e1 29 c3 be 40 a3 a6 bd c0 5d 94 3c d1 5b 82 bf
       -0.3811789 -0.08136606 0.01811111 -1.018427
0003b0 0b f3 c2 3f a0 b4 25 3e 93 9b df 3e 95 ef df 3e
       1.5230421 0.16182184 0.4367338 0.43737474
0003c0 34 bc ee ba 57 56 39 c0 dc f3 dc be fa 52 d2 3e
       -0.0018214048 -2.8958948 -0.431548 0.4107893
0003d0 70 70 21 3f ec ae 99 be b8 a8 e2 3e ee 5b b8 be
       0.6306219 -0.30016267 0.44269347 -0.36007637
0003e0 d4 a6 c9 be 5a c2 c3 3e 4e 9b 8e 3e e5 72 76 be
       -0.39385092 0.38234216 0.27852863 -0.24067266
0003f0 22 9f 96 be 46 0f 11 be c8 6b cc bd 2e 3d 75 bf
       -0.29418284 -0.14165983 -0.09981495 -0.9579648

net.0.bias f4 [128]
000000 c7 a5 4a 3f d0 ac 71 3f 80 13 a0 be 3a c6 97 bd
       0.79159206 0.94404316 -0.31264877 -0.074108556
000010 ef 62 63 3c 4c 67 31 be 28 1f 94 bd 24 1a 96 be
       0.013878568 -0.17324561 -0.07232505 -0.2931682
000020 c7 9f 6b 3f 67 9a 56 3f 8c 12 35 3e 4e 08 5a 3f
       0.92040676 0.8382935 0.17682856 0.8516892
000030 87 dd 50 3f 54 0e 2f 3f 8c 8d d2 bd 0a 85 c4 be
       0.81588024 0.6838124 -0.10280904 -0.3838275
000040 86 9e d5 be 82 a9 bb be ad 2d 82 3f 0c 84 7c 3f
       -0.41722506 -0.36652762 1.0170189 0.9863899
000050 be 2b c2 be de e0 0d 3f 08 ac ff bd fa 1b 24 3f
       -0.37923998 0.55421245 -0.12483984 0.6410519
000060 d8 f1 0e 3c 4f ad 1a 3f 96 d6 dd be 62 c3 36 3e
       0.008724652 0.604207 -0.4332778 0.1784797
000070 a4 de 7b be 30 21 5e 3f b3 eb 19 3f 81 1e 05 3f
       -0.2459665 0.8676939 0.60125273 0.5199967
000080 7b e1 30 3f 73 10 57 3f 50 75 4e 3f 68 d8 94 be
       0.69094056 0.84009475 0.80647755 -0.29071355
000090 6d 3b f7 3e ac c1 4d 3e 8c d0 83 be 63 41 6d 3f
       0.48287526 0.20093411 -0.25745046 0.926779
0000a0 a3 a7 e7 3e 2b 9e 7f 3f 9e e6 7a 3f a5 7e 2b 3f
       0.45245084 0.9985072 0.98008144 0.6699012
0000b0 d8 90 04 be 96 7a 0b 3f 9b 1d c2 be 96 96 fa bd
       -0.12945879 0.54483926 -0.37913212 -0.12235753
0000c0 df 72 b6 bd 59 f6 6e be 2f bd 54 be 52 5c 54 3f
       -0.08908629 -0.23336162 -0.20775293 0.8295337
0000d0 35 c0 38 3f b9 f0 24 3f 9b d4 57 3f 86 35 7c bd
       0.72168285 0.64429814 0.84308785 -0.06157448
0000e0 aa 28 62 3f cf 83 b0 be 36 de 83 be 69 52 58 3f
       0.883433 -0.34475562 -0.2575547 0.8450075
0000f0 72 8d 7d 3d ab 3d ef 3e be 9c c0 be 43 e3 b3 be
       0.06190247 0.46726736 -0.37619585 -0.35134324
000100 14 cd 10 3f 54 ef 27 3f 88 4d ed be 84 cf a6 be
       0.56562924 0.6559956 -0.46348214 -0.32580197
000110 62 6b 00 be 63 e0 34 3f e2 e8 9a be 50 6c 37 be
       -0.12540963 0.70654887 -0.302558 -0.17912412
000120 85 9e 53 3e 20 4a 91 bc 85 57 38 3f d2 22 53 3c
       0.20665939 -0.01773554 0.72008544 0.01288672
000130 35 88 8f be b3 8f 73 3f c5 aa 36 3f 5e ef e7 3e
       -0.28033605 0.9514114 0.71354324 0.4529981
000140 ea 48 22 3f df 5d a8 be 5d 1e e9 3e 0a 19 8e be
       0.6339251 -0.32884118 0.45530978 -0.27753478
000150 23 a7 bc be 9b a7 e9 3e 25 2f ab be 19 5a 31 3f
       -0.36846265 0.45635685 -0.33434406 0.69278103
000160 1b b2 80 be 26 3d 2b 3f 7b 98 33 3f 5a 01 1a 3f
       -0.25135884 0.6689018 0.7015454 0.6015831
000170 f7 75 09 be cd b8 23 3f f7 d8 1e 3f 38 aa 89 bd
       -0.13423906 0.6395386 0.6204981 -0.0672192
000180 24 a8 64 3f 10 4c e5 3e eb d9 4b bd f5 db 4e 3f
       0.8931906 0.44784594 -0.04976837 0.8080438
000190 f3 bd 99 3e ba 8c ea 3e a8 e9 5a 3f c4 b0 80 be
       0.30027732 0.4581049 0.8551278 -0.2513486
0001a0 80 b0 07 3f 27 ee 14 3f b7 26 02 3f 1a 27 32 3f
       0.5300369 0.5817589 0.50840324 0.69590914
0001b0 9c 25 07 3e 01 d8 7c be 38 b3 47 be 6f e8 ec 3e
       0.1319794 -0.24691774 -0.1950196 0.46271083
0001c0 7c 7d a9 3d 49 6a 7f 3f c2 5f 91 be df d6 d3 3d
       0.08275887 0.99771553 -0.2839337 0.10343718
0001d0 ec 53 30 3f 0c af 2b 3f 7c f6 9c be 03 06 be 3a
       0.68878055 0.67063975 -0.30656803 0.0014497641
0001e0 08 cc 21 be ee ff af be 15 0b 89 be 9a d5 6d 3f
       -0.15800488 -0.34374946 -0.26766267 0.92904055
0001f0 8e 7d 9f be 44 9b 73 3f 83 4f d4 3e 12 81 de be
       -0.31150478 0.9515879 0.41466913 -0.43457848

net.2.weight f4 [128, 128]
000000 da c3 05 3f 93 89 17 3f 70 24 a4 3b 39 fa 05 3f
       0.5225197 0.59194297 0.0050092265 0.52334934
000010 f5 ae 82 3f b8 c8 00 3d e0 88 7e bd ad 48 da bf
       1.0209643 0.03144142 -0.062142253 -1.7053429
000020 55 43 f9 3e d1 11 e2 3e 61 c4 ab bf 11 8d 28 3f
       0.48684183 0.44154218 -1.3419305 0.6584025
000030 2b 9f 02 3f 52 6f 1b 3f 10 0a 82 3f 50 b0 09 3d
       0.5102412 0.60716736 1.0159321 0.03361541
000040 08 9c ce bc b0 60 0f 3c a2 06 eb 3e 11 30 11 3f
       -0.025220886 0.008751079 0.45903498 0.5671397
000050 c0 0d ce ba 57 cb 03 3f f0 f8 b7 3b 31 b5 16 3f
       -0.001572065 0.51482147 0.0056143925 0.58870226
000060 3b 98 ad 3e 6f ed 3e 3f 10 de 96 3c 8f 45 41 3f
       0.33905205 0.74581045 0.018416435 0.75496763
000070 f5 c2 17 40 e1 7e 06 3f 1f 78 5a 40 b5 84 2b 3f
       2.3712742 0.5253735 3.4135816 0.6699937
000080 11 51 0a 3f 20 58 03 3f ac ea 73 3f c6 73 18 3d
       0.5402995 0.51306343 0.95279956 0.037219785
000090 3a 3f f3 3e 5f b2 2e bf e9 d3 22 40 4e 15 e8 3e
       0.47509176 -0.6824092 2.544184 0.45328754
0000a0 0e bc 17 3f 1c 6a ff 3e be cc 24 3f 89 f9 0a 3f
       0.59271324 0.49885643 0.6437491 0.5428701
0000b0 ce 07 7d 3d d9 31 f2 3e 2c 6a dd 3c 21 f1 c5 3e
       0.06177502 0.47303656 0.027028166 0.3866053
0000c0 39 ba ff 3e d5 3d 95 3d c0 85 27 3c 44 39 29 3f
       0.49946764 0.07287184 0.01022476 0.66103005
0000d0 1f 9c 54 3f d1 45 e2 3e 90 4d 3a 3f 0b 3a 99 3f
       0.8305072 0.4419389 0.727746 1.1970838
0000e0 27 94 24 3f d2 1e 20 3d dd 0f 42 3f c8 5e 4e 3f
       0.6428856 0.039091893 0.75805455 0.80613375
0000f0 16 b9 68 3f 02 bb 10 3f 4b 56 8c 3d 31 41 a8 3d
       0.9090742 0.5653535 0.068523966 0.08215559
000100 e9 1b e6 3e 35 1b e7 3e fb e4 f6 3f 3c 88 4b bd
       0.4494317 0.45137945 1.9288629 -0.04969047
000110 d0 ab c2 3b 2b 3f 0c 3f b3 1e 97 3d 7f 28 99 bd
       0.005940892 0.54783887 0.07378902 -0.07478427
000120 67 08 c3 bf 63 c9 0d 3f 15 4c c9 3e 3c ef 52 3e
       -1.5236939 0.55385417 0.39315858 0.20599073
000130 84 0e 76 bd 91 c4 3b 3f f8 3e 08 3f 50 51 b4 3e
       -0.060072437 0.7334681 0.5322108 0.35218287
000140 64 3e fd 3e ab 54 d4 3f 73 f6 29 3f 94 41 d0 3f
       0.49461663 1.6588339 0.66391677 1.6270013
000150 1c ae bb 3f 0d 3b d5 3e 78 6b e9 3f d9 23 16 3f
       1.4662509 0.41646615 1.8235922 0.5864845
000160 d6 a3 94 3f 79 09 e4 3e 3a 33 06 3f da cd 03 bf
       1.1612499 0.44538477 0.52421916 -0.5148598
000170 46 0c 62 3f 51 0e 09 3f ef d2 18 3f 20 f3 92 bc
       0.8829998 0.5353747 0.5969686 -0.017938197
000180 eb 0a 34 3f 4c 09 23 3f 0e 44 ea 3e d1 3f 86 3f
       0.7032916 0.6368606 0.45755047 1.0488225
000190 f9 c7 71 bf 7a 11 86 3f c9 d0 f0 3e 7a 31 2c bd
       -0.9444576 1.0474083 0.4703429 -0.042039372
0001a0 de d2 4d 3f b1 ea 05 3f 1b 3b 05 3f 8f 5c 2e 3f
       0.8039988 0.52311236 0.5204331 0.68109983
0001b0 3f 8f 4d 3f eb cb 9f 3d a5 c3 55 3f aa b1 58 40
       0.802967 0.07802566 0.83501655 3.3858438
0001c0 2f 84 0a 3f 4a f3 e5 3e 6b f4 85 bd 61 90 94 3f
       0.54107946 0.44912177 -0.0654076 1.1606561
0001d0 39 02 22 3f 6c 5d b8 3f 00 60 62 38 3f 47 5b 3f
       0.6328464 1.440351 5.3972006e-05 0.8565559
0001e0 a5 f4 a2 3d f2 1a 13 3d ad 85 13 bd d3 74 e4 3e
       0.079568185 0.03591437 -0.036016155 0.4462038
0001f0 13 2d 2b bd 42 e5 fa 3e 3b e4 a4 3f 2c df 0e 3d
       -0.041791033 0.49003035 1.288215 0.034880802
000200 48 7c c7 bc ab 44 bc bd 14 7a ad bd 55 70 60 bd
       -0.024351254 -0.09192785 -0.0847055 -0.05479463
000210 e8 b0 69 bc 66 d8 52 3d c6 8a 5a 3d 2c f5 af bd
       -0.014263369 0.051475905 0.053355 -0.08591685
000220 38 30 95 bd 29 c3 ae bd 72 ab 49 bd ec 68 2e bc
       -0.072845876 -0.085333176 -0.04923577 -0.0106451325
000230 54 b9 bc bd 1a b3 d5 bc a9 54 9a 3d a9 b4 ad 3d
       -0.09215036 -0.026086379 0.07535679 0.08481724
000240 9a 36 86 bd 80 e6 ec 3a 20 a8 90 bd e3 a1 1d bc
       -0.06553383 0.0018074065 -0.07063317 -0.009621116
000250 58 3f 1b bc b6 b6 c9 bb 9e 4c ab bd e8 91 32 bd
       -0.009475552 -0.006155814 -0.08364223 -0.04359618
000260 dc 51 00 3d 83 e3 d4 bd 70 7a 2f bc 5f 89 ed bc
       0.031328067 -0.10394957 -0.010710344 -0.028996168
000270 14 37 4c 3b 6a 7a 7d bd 38 d5 35 3a 30 5a 39 3c
       0.0031160759 -0.06188432 0.0006936374 0.011313006
000280 73 b5 08 3b a5 75 15 bd 04 fe f3 bc 0a 57 64 3d
       0.0020860105 -0.036489148 -0.02978421 0.05574707
000290 3f 8c 39 bc f0 e4 e3 bc 42 f2 3b 3d eb f1 2a 3d
       -0.011324941 -0.027819127 0.045885332 0.041734617
0002a0 ea 7c 1f bc fe 66 ad bc 13 85 5a bd 07 e3 60 bd
       -0.009734372 -0.021167275 -0.053349566 -0.05490401
0002b0 80 91 70 ba 2f da ea bc 30 65 29 bc f0 05 4c bd
       -0.00091769546 -0.028668491 -0.010339066 -0.04981035
0002c0 83 da 0a bd be b6 55 3d 00 2f b4 bc 4a 4f 17 bc
       -0.033899795 0.05217623 -0.021995068 -0.009235213
0002d0 56 ff 10 3d 4f 26 50 3d f9 f5 b5 bd 94 bd c3 bd
       0.035399757 0.050817784 -0.08884806 -0.095576435
0002e0 7c bf 3b bc c7 47 82 3d 7e 11 6a bd af a1 53 3c
       -0.011459228 0.06361347 -0.057145588 0.012916966
0002f0 d9 c0 38 bd 66 c2 4b 3d f8 4a ac bd e4 6b a3 3c
       -0.04510579 0.04974594 -0.08412737 0.019948907
000300 a8 19 a3 bd 05 c4 ed bc 86 44 01 bc 5c 11 ab bc
       -0.07963878 -0.029024133 -0.007889872 -0.020882301
000310 9c f4 d8 3c 9f aa 54 bb 0c 42 8b bd 50 58 a7 bc
       0.026483826 -0.003245033 -0.06799707 -0.020427853
000320 a8 e8 d8 3c e5 96 a7 bd 99 1c 91 bc 37 b0 9b 3b
       0.026478127 -0.08183078 -0.017713832 0.004751231
000330 f8 cf e6 3c a9 5b 46 3c 9d 7c 05 bd 5f d1 c8 bd
       0.02817534 0.012106814 -0.032589544 -0.09805559
000340 fa 3b ab 3c 04 90 53 3d 2f cc 45 bc 77 d7 81 3d
       0.020902622 0.051651016 -0.012072607 0.06339925
000350 ac b5 c3 3c 5c e4 94 3c 8e 8e ad bd 69 2d 0e 3c
       0.023890339 0.018175296 -0.08474456 0.008677819
000360 4b b0 e4 bc 52 f7 24 3d 73 ad cd bc bb af 53 ba
       -0.027916094 0.040274926 -0.025107121 -0.0008075197
000370 42 b6 ba 3c f0 83 36 bd c7 00 a0 3c 5c d8 98 bd
       0.022791985 -0.04455942 0.01953162 -0.07463142
000380 e7 7f a2 ba 68 96 e9 3c 3d 72 32 bd 2a 38 47 bd
       -0.0012397737 0.028514102 -0.043565977 -0.048637547
000390 f5 e1 64 3d c6 83 5a 3d 3c 90 24 3c 91 62 85 3d
       0.055879552 0.053348325 0.010044154 0.06512941
0003a0 2d 1b b2 3c 90 c0 bc bd a6 9b 31 bc dc a4 d5 bd
       0.021741474 -0.09216416 -0.010840332 -0.10431835
0003b0 6c f3 91 bd 50 e8 da bb 76 67 77 bd 85 d5 23 bc
       -0.07126507 -0.006680526 -0.060401402 -0.0099996375
0003c0 5e 0d 59 bd 13 a9 5d bd 19 71 9b 3d da d6 43 bd
       -0.052991264 -0.05411632 0.07589931 -0.04781232
0003d0 1b 9b 47 3d 86 c2 70 3d b2 c0 4f 3d 4b 1a 31 bd
       0.048731904 0.058779262 0.050720878 -0.043237966
0003e0 cc 0e 91 bd 60 f8 e8 bb 74 f0 96 bd 79 fe a1 bb
       -0.070829004 -0.0071096867 -0.073700815 -0.0049436656
0003f0 d8 35 36 bc 2c c1 00 3c 1b ed 00 3d aa 78 e5 bc
       -0.011121236 0.007858556 0.03147612 -0.028011639

net.2.bias f4 [128]
000000 77 a4 19 3f 86 52 14 bd 27 9f 1d 3f f7 54 98 bd
       0.6001658 -0.036211513 0.6157097 -0.07438081
000010 dc 69 8c bd 72 0b 73 3d 35 4e f1 3e c4 a7 25 3f
       -0.068561286 0.059337087 0.4712998 0.64709115
000020 3c 4f 0a 3f f5 78 58 bd e9 9f 4c 3d 03 9b 1e 3f
       0.5402715 -0.05284973 0.04995719 0.6195528
000030 17 e3 da 3c 5c e1 91 3d f3 8a f1 3b 25 0b ff 3e
       0.026719613 0.07123062 0.0073713004 0.4981319
000040 8e e9 0b 3f 0d ef 1b bd 05 dc 23 bc d6 cd 26 bd
       0.5465325 -0.038069773 -0.010001187 -0.040723644
000050 cc 57 02 3f a9 ab 6e bd 28 15 b0 bd a9 2a 0e 3f
       0.5091522 -0.058269177 -0.08597785 0.55533844
000060 45 22 40 bd 04 54 15 3f 9a 60 15 3f 55 e9 00 3d
       -0.046907682 0.5833132 0.5835053 0.031472523
000070 f0 c3 78 3d 6e db 15 3f 74 86 2d bd 3c bd 2b bf
       0.060733736 0.5853795 -0.042364553 -0.67085624
000080 82 47 84 3c 04 3b 15 3f a6 ea 20 bd 19 19 a7 3c
       0.016147379 0.58293176 -0.03928628 0.02039771
000090 8a 15 c4 bd 25 1b 2b 3f 2f 88 1e 3f 6a 7c 2c 3d
       -0.09574421 0.66838294 0.6192655 0.042110838
0000a0 d4 0a 0a 3f fc 5c 1d 3f 01 f6 06 3d 47 51 7d bd
       0.5392277 0.6147001 0.03294945 -0.06184509
0000b0 a4 8d 9d bd ef e1 50 bd db f4 01 3f e0 a7 19 bd
       -0.076930314 -0.050996717 0.50764245 -0.037513614
0000c0 76 1f 94 bd 38 fc dc bd b1 1d 95 3d 12 b3 1a 3f
       -0.07232563 -0.107902944 0.07281054 0.6042949
0000d0 78 3a ce bc 07 47 22 3f cc b1 11 3f 86 5e 88 bd
       -0.025174364 0.6338963 0.5691192 -0.06658654
0000e0 c4 95 9a bc 0e b4 1a 3f 78 5d e8 3c cd 7b ad bd
       -0.018870242 0.6043099 0.028364882 -0.08470879
0000f0 a1 43 85 3d 54 48 c0 bc fd 0b 1c 3f ec 40 84 bd
       0.0650704 -0.023471989 0.6095579 -0.06457695
000100 b0 c8 cb 3b 76 c3 00 bd 89 5e 3c bd 8a 9c 06 3f
       0.006218992 -0.031436406 -0.045988593 0.5258261
000110 9d a3 1c 3f 90 f7 04 3f f5 88 18 3f 2b 06 68 3d
       0.61187154 0.5194025 0.5958398 0.056646507
000120 91 62 1d 3f ee 60 13 3f 42 0d d0 3e de 18 17 3d
       0.61478525 0.5756978 0.40635115 0.03688895
000130 aa 01 23 3f c0 57 a6 bb fe 44 a3 3e fe 01 1c 3f
       0.63674414 -0.0050763786 0.31888574 0.6094054
000140 fa 3d 7c bd 24 d0 d0 bc ed 00 1c 3f 5f f1 a3 bd
       -0.061582543 -0.025489874 0.6093891 -0.08005022
000150 3a 2c 58 3d 31 a9 45 bd f3 25 17 bd 86 e6 e2 3c
       0.052776553 -0.048257057 -0.036901426 0.027697813
000160 28 77 e9 3c 5a 90 42 3d 1a 93 20 3d ca 18 11 3f
       0.028499201 0.047500946 0.039202787 0.5667845
000170 99 4f d2 3e 2d a6 89 bc 99 08 88 bd 0c c2 98 bd
       0.41076353 -0.016802872 -0.06642265 -0.074588865
000180 6c 81 f4 3c e1 af 18 bc af e7 1c 3f 1d 57 17 3f
       0.02984687 -0.009319277 0.6129102 0.591173
000190 78 a7 0b 3f f5 d2 a9 bd 5e b8 0b 3f 9a 20 22 3f
       0.5455241 -0.0829219 0.54578197 0.63330996
0001a0 10 6f 9d 3b 56 70 37 bd 70 e2 7b 3e 68 27 19 bc
       0.0048044994 -0.044784866 0.24598098 -0.009347774
0001b0 ce e9 9e 3d da 34 17 3d e2 66 7a bd 80 75 14 3f
       0.077594385 0.036915638 -0.061133273 0.5799179
0001c0 19 11 07 3f 8c 76 64 3d ea f3 2a 3f 33 8b 0e 3f
       0.52760464 0.055777118 0.66778433 0.5568115
0001d0 5f b6 09 3f 60 a6 ac bd 0e b7 17 bd eb 6b be 3c
       0.537939 -0.08430171 -0.03703981 0.023244819
0001e0 65 28 08 3f 50 c8 25 3d 46 a6 0b 3f 39 b2 88 bd
       0.5318664 0.040474236 0.5455059 -0.06674618
0001f0 38 f4 0d 3d a3 44 c5 bc fc d0 98 3c 8d f4 56 bd
       0.034656733 -0.02408058 0.018654339 -0.052479316

net.4.weight f4 [3, 128]
000000 79 a7 52 bf 9f 5e 81 3d 05 d8 5c bf b8 fb ee bc
       -0.82286793 0.06316876 -0.8626712 -0.029172763
000010 d4 96 84 bc 05 b8 96 3d a9 04 13 bf 8b 86 3a bf
       -0.016185202 0.07359318 -0.57428986 -0.72861546
000020 fe 29 28 bf 97 9d 61 3d 74 e7 90 bc d9 57 56 bf
       -0.65689075 0.05508193 -0.01768849 -0.83727795
000030 50 ca 2c 3d 99 b2 32 3d 55 7c 93 3d 9b ca 3e bf
       0.042185128 0.043627355 0.07201449 -0.745279
000040 8f 22 31 bf e0 42 85 bd 17 b8 3e bd 30 f9 c3 bc
       -0.6919336 -0.06506896 -0.04656228 -0.023922533
000050 9a 3c 3e bf 81 ad b0 bd 08 53 98 3c 9c 90 0e bf
       -0.7431122 -0.08626843 0.01859428 -0.55689406
000060 c2 3c ae bd 9d 2d 23 bf ac fd 4d bf 6d 96 e2 bc
       -0.085076824 -0.63741475 -0.804652 -0.02765962
000070 18 11 67 3d 6c 72 2b bf 01 5e 6d 3d 67 59 d3 3f
       0.056412786 -0.6697147 0.057950977 1.6511658
000080 c0 bb 9b ba a3 75 1d bf c0 f0 c0 bb ad 69 94 3d
       -0.0011881515 -0.61507624 -0.0058880746 0.072467186
000090 02 77 8b 3d 74 d0 55 bf f0 be 06 bf 8a db c7 bd
       0.06809808 -0.835212 -0.526351 -0.09758671
0000a0 6b ae 59 bf fc f5 02 bf 3d f8 50 3d 6c 2a c6 bc
       -0.85031766 -0.5115659 0.05101799 -0.02419015
0000b0 7b 69 84 bd 12 e1 32 3d 65 50 0e bf 60 10 2b 3c
       -0.06465431 0.043671675 -0.5559142 0.010440916
0000c0 08 96 d8 3c 26 79 03 bd a2 4e 19 3d 76 61 02 bf
       0.026438728 -0.032097958 0.037428506 -0.50929964
0000d0 f0 0e 1c 3c 46 97 2f bf 2d 65 39 bf 20 74 c0 3b
       0.009525046 -0.685902 -0.72420007 0.005873218
0000e0 80 ae ed 3c e4 88 14 bf 19 0c ab 3d 19 d0 81 3d
       0.029013872 -0.5802138 0.08351917 0.063385196
0000f0 10 85 d5 3b 68 4f 52 bb 5d 9c 3d bf f8 c7 fe 3c
       0.0065161064 -0.0032090787 -0.74066716 0.031101212
000100 1a c8 1e 3d 66 81 7b bd 0b 66 ea bc bb 24 2d bf
       0.03876505 -0.0614027 -0.028613111 -0.6763417
000110 d1 37 39 bf fb 77 f6 3f f3 30 32 bf 62 a8 73 3d
       -0.72350794 1.9255365 -0.6960594 0.059486754
000120 87 05 19 bf 13 e9 49 bf b7 8d f7 3f 34 5e be 3c
       -0.5977406 -0.7887127 1.9340123 0.023238279
000130 58 ee 64 bf 8b 28 96 3d 8b 7f f5 be 44 3b 4f bf
       -0.89426184 0.07331952 -0.4794887 -0.8094981
000140 ce c2 1f 3c c0 fb d4 bb 13 4f 36 bf 04 18 3a 3c
       0.009751035 -0.0064997375 -0.7121441 0.011358265
000150 9e cb d8 bc fe b0 c7 3c f7 21 39 bc a4 fa 43 bd
       -0.02646428 0.024376389 -0.011299602 -0.04784645
000160 40 9f 33 3c 19 e6 60 bc 5f fc 85 3d b6 4e 38 bf
       0.010963261 -0.013726735 0.065422766 -0.71995103
000170 8c 06 06 40 cc 83 82 bc b1 e0 7a 3d 4f 3e 14 bd
       2.0941496 -0.015931986 0.06124944 -0.036192235
000180 cc bf b3 bd 93 49 22 3d 51 5f 53 bf d8 be e6 be
       -0.08776817 0.039620947 -0.82567316 -0.45067477
000190 13 60 51 bf 3e 11 30 bc dc 8c 4f bf 66 6e 64 bf
       -0.8178722 -0.010746298 -0.8107431 -0.89230955
0001a0 a8 ec 73 bc f8 9a 08 bc 4e 80 25 be 92 8a 43 3d
       -0.014887966 -0.008337729 -0.16162226 0.047739573
0001b0 6f 29 80 3d ee 3e 30 3d c2 5d 56 3d 8a 1f 4d bf
       0.06257903 0.043028764 0.05233551 -0.8012625
0001c0 b7 fc 54 bf f7 08 f9 3c 56 8a 5d bf b3 32 40 bf
       -0.8319811 0.030399783 -0.8653921 -0.7507736
0001d0 3c 0c 5d bf b6 80 19 3d e3 c6 be 3c fd f5 8d 3d
       -0.86346793 0.037476264 0.023288196 0.06931684
0001e0 60 b6 4a bf 03 1f f0 3c c5 74 30 bf 98 b5 8f 3c
       -0.7918453 0.029311663 -0.68928176 0.017542645
0001f0 2a c9 09 bd ce a3 53 3c 57 be 89 3d 3a 75 97 bd
       -0.03363911 0.012917472 0.067257576 -0.07395406
000200 d5 d7 36 bf f1 63 1e bd 86 df 3a bf c5 7c b3 3b
       -0.71423084 -0.03866953 -0.7299732 0.00547752
000210 6e df 23 3d fc 63 a2 3c ff ef 38 bf 62 57 3b bf
       0.040008 0.019823067 -0.72241205 -0.7318021
000220 6c b5 21 bf 49 fc 9f 3d 39 36 6c 3d 33 0a 3d bf
       -0.6316745 0.078117914 0.0576689 -0.7384369
000230 ba 35 75 3d 62 fa ba bd fa 22 46 bd 82 2b 48 bf
       0.05986569 -0.09129788 -0.0483732 -0.7819139
000240 73 92 33 bf 83 0c 98 3d ea 17 f2 3c 7c 47 bc 3c
       -0.7014534 0.074242614 0.029552419 0.022983305
000250 1e 72 41 bf 8c 63 0f bd b2 16 66 3d 29 d0 2b bf
       -0.75564754 -0.035007045 0.056173988 -0.671145
000260 c2 2a a0 bd 59 6d 45 bf 43 a7 32 bf 05 22 4c 3d
       -0.078206554 -0.77119976 -0.6978647 0.04983713
000270 93 95 92 3d 52 6e 25 bf 04 3a 18 bd 63 30 c0 be
       0.07157435 -0.6462146 -0.037164703 -0.37536916
000280 de 8a 04 bd 81 cb 3c bf 62 5a 5c 3d 49 6c 11 3d
       -0.032358997 -0.7374802 0.053797133 0.03550366
000290 9b 52 09 bd 35 e6 1f bf 0f 00 3c bf 34 d0 91 3d
       -0.033526044 -0.62460643 -0.7343759 0.0711979
0002a0 5d cb 30 bf ad 1a 37 bf 79 38 82 3d 8b 1e 95 3d
       -0.6906031 -0.7152508 0.063584276 0.07281216
0002b0 fd c5 7f 3d 44 16 83 bc 91 35 22 bf f2 1e 14 3d
       0.062444676 -0.016001828 -0.63362986 0.036162324
0002c0 f0 7c 62 bc e8 b3 06 bd b2 ce 56 3d 15 80 33 bf
       -0.013823733 -0.032886416 0.052443214 -0.7011731
0002d0 83 0d 17 3d c2 a5 3f bf f1 bc 32 bf d2 11 af bd
       0.03687812 -0.748623 -0.6981955 -0.08548321
0002e0 38 ce ae bc e0 1c 2f bf 50 df c1 bc 26 46 7a bd
       -0.021338567 -0.68403435 -0.023666054 -0.061102055
0002f0 ea 63 06 bd 9a ee 63 3d 55 26 3b bf 26 1f 34 3d
       -0.03281013 0.05564747 -0.73105365 0.043975018
000300 7d 10 a9 3d 85 bf 94 3d 50 20 6b 3d 84 7e 46 bf
       0.08255098 0.07263092 0.057403862 -0.775368
000310 0a 79 20 bf a7 3c 13 40 5f 63 45 bf b7 87 f5 bc
       -0.6268469 2.300577 -0.77104753 -0.02997194
000320 2d ab 45 bf 8f c9 36 bf cb ef 0a 40 e0 28 b1 3b
       -0.7721432 -0.71401304 2.1708858 0.005406484
000330 7c 87 2b bf dd 63 9a 3d 10 40 91 3f 81 2e 35 bf
       -0.6700361 0.07538579 1.1347675 -0.70774084
000340 00 c6 9f 3d 00 c5 fd 3c c5 88 49 bf 2f 9d 90 3c
       0.078014374 0.030977726 -0.7872432 0.017653076
000350 90 53 32 bc 7e ee f9 3c b6 e8 96 3c 6c 95 95 3d
       -0.010884181 0.03050923 0.018421512 0.073038906
000360 16 00 2e 3d 4a db 07 3d 52 f1 82 bd b5 2a 36 bf
       0.04248055 0.033168115 -0.063936844 -0.71158916
000370 59 57 0d 40 87 9d e8 3b 55 c0 49 3d 59 ac 50 bd
       2.2084563 0.007098857 0.049255688 -0.050945614
000380 fd 62 9c bd 14 1c 07 bc 4b ec 3f bf f7 db 3c bf
       -0.07636068 -0.00824644 -0.7496993 -0.7377314
000390 84 7f 3d bf 19 b7 90 3c 3a f2 47 bf 56 db 44 bf
       -0.740227 0.017665433 -0.78103983 -0.7689718
0003a0 c4 6a 80 3c 7b 09 1f b9 e5 9f 3a bf ca a5 37 3d
       0.01567591 -0.00015166953 -0.7290023 0.044835843
0003b0 b2 9d 40 bd 98 ce c0 bc c5 8e 67 bd f0 df 41 bf
       -0.04702539 -0.023536012 -0.05653264 -0.75732327
0003c0 57 a2 48 bf f3 9d 6c 3d e5 28 30 bf 46 b2 2a bf
       -0.7837271 0.05776782 -0.688124 -0.66678274
0003d0 b2 88 45 bf c3 d9 5b 3c 9c a4 59 bb 75 f0 ae bb
       -0.77161705 0.013418618 -0.0033209687 -0.0053387233
0003e0 b8 8d 40 bf be 01 fc bb ab fe 40 bf 7e ad 77 3d
       -0.75216246 -0.0076906374 -0.7538859 0.06046819
0003f0 11 fa 8c 3d 7a 12 18 3d 69 58 b2 3d d2 60 30 3d
       0.06883634 0.037126996 0.08708269 0.043061085

net.4.bias f4 [3]
000000 50 e2 2a bf 1c 8c b8 bc 5d 6d de be
       -0.66751575 -0.022527747 -0.43442813
